…
[2024-11-07 02:54:24.757914][INFO][dist.py:908] - W&B RUN: [silver-armadillo-2](https://wandb.ai/tsegai/ezpz.test_dist/runs/4846onot)
[2024-11-07 02:54:24.762467][INFO][dist.py:304] - Updating wandb.run: silver-armadillo-2 config with "DIST_INFO"
[2024-11-07 02:54:24.766172][INFO][dist.py:936] - Running on machine='Sophia'
[2024-11-07 02:54:24.767330][INFO][dist.py:92] -

[CONFIG]:
  • warmup=0
  • log_freq=1
  • batch_size=64
  • input_size=128
  • output_size=128
  • dtype=torch.float32
  • device=cuda
  • world_size=8
  • train_iters=100


[2024-11-07 02:54:24.858953][INFO][test_dist.py:147] - model=Network(
  (layers): Sequential(
    (0): Linear(in_features=128, out_features=1024, bias=True)
    (1): Linear(in_features=1024, out_features=512, bias=True)
    (2): Linear(in_features=512, out_features=256, bias=True)
    (3): Linear(in_features=256, out_features=128, bias=True)
    (4): Linear(in_features=128, out_features=128, bias=True)
  )
)
[2024-11-07 02:54:31.723684][INFO][test_dist.py:228] - iter=1 dt=0.003 dtf=0.001 dtb=0.002 loss=2096.768 sps=20562.242
[2024-11-07 02:54:31.728469][INFO][test_dist.py:228] - iter=2 dt=0.002 dtf=0.001 dtb=0.001 loss=1569.855 sps=32997.154
[2024-11-07 02:54:31.732629][INFO][test_dist.py:228] - iter=3 dt=0.002 dtf=0.001 dtb=0.001 loss=1152.322 sps=33986.440
…
[2024-11-07 02:56:01.798072][INFO][model.py:445] - num decayed parameter tensors: 50, with 85,771,008 parameters
[2024-11-07 02:56:01.798702][INFO][model.py:449] - num non-decayed parameter tensors: 25, with 19,200 parameters
[2024-11-07 02:56:02.729020][INFO][model.py:465] - using fused AdamW: True
/home/tsegai/wordplay/src/wordplay/trainer.py:303: FutureWarning: `torch.cuda.amp.GradScaler(args...)` is deprecated. Please use `torch.amp.GradScaler('cuda', args...)` instead.
  grad_scaler = GradScaler(
[2024-11-07 02:56:02.730891][CRITICAL][trainer.py:318] - "devid='cuda:0'"
[2024-11-07 02:56:02.741874][INFO][trainer.py:358] - • self.model=GPT(
  (transformer): ModuleDict(
    (wte): Embedding(65, 768)
    (wpe): Embedding(1024, 768)
    (drop): Dropout(p=0.0, inplace=False)
    (h): ModuleList(
      (0-11): 12 x Block(
        (ln_1): LayerNorm()
        (attn): CausalSelfAttention(
          (c_attn): Linear(in_features=768, out_features=2304, bias=False)
          (c_proj): Linear(in_features=768, out_features=768, bias=False)
          (attn_dropout): Dropout(p=0.0, inplace=False)
          (resid_dropout): Dropout(p=0.0, inplace=False)
        )
        (ln_2): LayerNorm()
        (mlp): MLP(
          (c_fc): Linear(in_features=768, out_features=3072, bias=False)
          (act_fn): GELU(approximate='none')
          (c_proj): Linear(in_features=3072, out_features=768, bias=False)
          (dropout): Dropout(p=0.0, inplace=False)
        )
      )
    )
    (ln_f): LayerNorm()
  )
  (lm_head): Linear(in_features=768, out_features=65, bias=False)
)
[2024-11-07 02:56:02.745961][INFO][trainer.py:359] - • self.grad_scaler=<torch.cuda.amp.grad_scaler.GradScaler object at 0x14b39884c190>
[2024-11-07 02:56:02.747051][INFO][trainer.py:360] - • self.model_engine=DistributedDataParallel(
  (module): GPT(
    (transformer): ModuleDict(
      (wte): Embedding(65, 768)
      (wpe): Embedding(1024, 768)
      (drop): Dropout(p=0.0, inplace=False)
      (h): ModuleList(
        (0-11): 12 x Block(
          (ln_1): LayerNorm()
          (attn): CausalSelfAttention(
            (c_attn): Linear(in_features=768, out_features=2304, bias=False)
            (c_proj): Linear(in_features=768, out_features=768, bias=False)
            (attn_dropout): Dropout(p=0.0, inplace=False)
            (resid_dropout): Dropout(p=0.0, inplace=False)
          )
          (ln_2): LayerNorm()
          (mlp): MLP(
            (c_fc): Linear(in_features=768, out_features=3072, bias=False)
            (act_fn): GELU(approximate='none')
            (c_proj): Linear(in_features=3072, out_features=768, bias=False)
            (dropout): Dropout(p=0.0, inplace=False)
          )
        )
      )
      (ln_f): LayerNorm()
    )
    (lm_head): Linear(in_features=768, out_features=65, bias=False)
  )
)
[2024-11-07 02:56:02.750819][INFO][trainer.py:361] - • self.optimizer=AdamW (
Parameter Group 0
    amsgrad: False
    betas: (0.9, 0.95)
    capturable: False
    differentiable: False
    eps: 1e-08
    foreach: None
    fused: True
    lr: 0.0006
    maximize: False
    weight_decay: 0.1

Parameter Group 1
    amsgrad: False
    betas: (0.9, 0.95)
…
